week5_policy_based/kungfu_data/atari_a2c_state_dict.pt (torch_old, 350811 bytes, 11 tensors)

conv1.weight f4 [32, 4, 3, 3]
00000000: 6315 65be c14b 8cbe 76c5 503e f0bf 2bbe
00000010: 5d8d b0be 9043 163e b7c3 a7bd 1ce3 c03d
00000020: 5603 5e3d 5d30 d1bd e8d8 a1bd a39d b73d
00000030: 934c 0c3e 5c01 0b3e 195e 8abd 5ed0 dbbd
00000040: a82f ccbb 3177 f3bd 8242 03be 778d 24be
00000050: dede 09be d320 043e c229 98bc 0a0b 25be
00000060: 836d 273e 7ff7 083e 78c0 cd3d 5b3b bd3c
00000070: 8b7d 79bd 4128 dbbc 14f1 203e 0572 7d3d
00000080: 3971 2e3c 6904 ae3c a91d 2c3d 0199 e03d
00000090: f3f6 a23b ff01 9cbd 3af1 09bd 1cf6 903d
000000a0: c169 26bd ab99 323e d669 923d 3e04 0ebe
000000b0: 57ae a13d 9f6f 833c 9ddd 95bb ef76 723d
000000c0: 0613 483d ed34 a7bc 631a f33d 0a3a c93d
000000d0: 579f bf3d 207d 863d dc46 3abe 3b81 98bd
000000e0: 1cd7 35be d84d c83d 2378 9cbd 4987 3c3d
000000f0: 5ad1 dbbb aa2b 96bd a609 b93c 2fb9 a6bd
00000100: 1859 e13d e476 afba 1ec2 9f3c 1cc7 c53d
00000110: 56db 1f3d c28c 113d ec5e 283c bc60 30be
00000120: 31a7 643e 8552 433d 233b 823d 310f 80be
00000130: d0fd 2a3e 278f 3ebe 393f ec3c 192a 8e3c
00000140: 8aa0 c43d 65a6 6ebd 3bd2 0fbe 5ddf 57bd
00000150: e011 40bc 37ce 433d 738d f43d d1e0 32be
00000160: b20b e53d 319d 2dbc b6f4 b83d 8ba0 dabd
00000170: 8ffc 753d 3e22 2fbe 6790 573c d02e 0fbe
00000180: 1472 5ebd 7c85 d1bd 8315 a1bd caa8 703d
00000190: c38f 133d b49a 2a3e 16ed babd fbf2 f7bd
000001a0: 8eaa 2cbd 353b 13be 52df a3bc ae7d 2b3e
000001b0: 7b36 48bd d1ae 08be b634 dd3d a260 4abe
000001c0: ffda 9a3d 4970 693d 66d4 19be b1bf 46be
000001d0: f3d9 2b3e 2b38 debd ba77 233e 2f22 f0bd
000001e0: 4496 95bd ab8e 293e ed3f 32bb 2a9a d7bc
000001f0: 24ed f63c 0677 453d c663 0dbe fab2 00be
00000200: 26a8 1ebe 0612 27bc 3fda 893d 0894 df3d
00000210: c96e bb3c b005 babd 5020 be3d 5c4f 9bbd
00000220: ca1a b3ba d4c3 fe3d dab1 6fbd d3c8 3c3e
00000230: be19 bb3d 892a d3bc 4229 153e a7c0 41be
00000240: 2a1d 6b3c 8802 8abe 687b 87bb fcbf 67be
00000250: fb30 bfbe f8df a63b c670 ce3d afde 833c
00000260: 0ba9 073e b5e2 82bc df18 c3bd 9000 483d
00000270: 980b d1bd 6608 40bc da5d 82bc 05fb 1a3e
00000280: 5525 d7bc e586 34be 00d2 753d e9e8 163e
00000290: dd1f 21be 786a 393e bddc 303e 3e6a c7bb
000002a0: c5d5 983d 5f17 2abe df6e 3bbe 4607 e73c
000002b0: e1fb df3d 9e03 3f3e d417 c13d aab4 b23c
000002c0: e3e0 87bd a881 4c3d 9b8c 163e e976 b83d
000002d0: c981 063d 4413 1a3e 3c4f 71be fe2f 5bbd
000002e0: 4b1a 553e 525a 77bd ec1d c8be e978 f13c
000002f0: e36c 7cbc 0b35 8ebd 8246 2cbe af6d acbd
00000300: 2c72 8abd f7f9 66bd 8e51 b83d 550c c5bd
00000310: f67c f03d 70f7 f43d eb0f 03bd 3725 aebd
00000320: d2ae ba3d 9018 e43d 9808 053e 9e5f 47be
00000330: e4ba d2bc c195 1a3d 4561 263d 64b9 3a3d
00000340: b76d 1a3e b8e8 dd3d ab46 ba3d e42a 4fbe
00000350: c9e5 93bd 01e4 ec3d 1d5a 053d 36c1 a63d
00000360: 1a90 993b 7912 1bbb 3379 c03d ea8a 8f3e
00000370: 526c a53c aa7c 2cbe d398 a53e 8df9 be3d
00000380: 2593 44bd 6607 db3c 65ec adbd 7466 68bd
00000390: 62ef e0bd b730 bdbd cb11 d93d 9dcb 993b
000003a0: 395d 6e3d f04c 90bd 146e 563d d51c 3a3e
000003b0: 8b0c 743a 0912 84bc 9968 123e e2b6 ebbc
000003c0: aac8 08be 620a 913d 2610 383c 9378 6cbd
000003d0: 84a4 82bd 3307 bdbd f9b4 d63d d969 6dbd
000003e0: deae 51be 1ad2 943d 36f9 d23c a80d cd3c
000003f0: 7e84 1f3d 70e3 0b3d 2df5 1f3e ef89 0ebe
-0.2237144 -0.27401546 0.20387825 -0.16772437 -0.34482852 0.1467421 -0.081916265 0.09418318
0.0542024 -0.10214303 -0.079027 0.08965614 0.13701086 0.13574737 -0.06756229 -0.10733102
-0.006231267 -0.11887968 -0.1281834 -0.1606959 -0.13463923 0.12903146 -0.0185746 -0.16117492
0.16350369 0.13375662 0.10046476 0.023099592 -0.060910743 -0.026752593 0.15716964 0.061876316
0.010647112 0.021242337 0.042020474 0.10966683 0.0049732863 -0.07617568 -0.033677317 0.07078192
-0.0406282 0.17441432 0.07149093 -0.13868806 0.07894581 0.016044436 -0.0045735375 0.059195455
0.048846267 -0.02041098 0.11870267 0.09825523 0.093565635 0.065668344 -0.18191093 -0.07446524
-0.17757839 0.097804725 -0.07640102 0.046027455 -0.0067083063 -0.07332547 0.022587609 -0.0814079
0.110033214 -0.0013386873 0.019501742 0.09657118 0.039027534 0.035534628 0.010276537 -0.17224401
0.22329403 0.04768612 0.06358936 -0.2501159 0.16698384 -0.18609296 0.02883874 0.017354058
0.09600933 -0.058264155 -0.1404504 -0.05270325 -0.011723012 0.047804084 0.11941042 -0.17468573
0.11183871 -0.010596559 0.0903105 -0.106751524 0.06005531 -0.17102906 0.013156987 -0.13982701
-0.054308012 -0.10230538 -0.07865431 0.05875472 0.036025774 0.16660577 -0.09127252 -0.12106892
-0.04215484 -0.14378054 -0.020003948 0.16747162 -0.04888008 -0.13347937 0.108010694 -0.19763425
0.075613014 0.05699185 -0.1502243 -0.19409062 0.1678236 -0.10850557 0.15963641 -0.1172527
-0.073040515 0.1655833 -0.0027198747 -0.026318628 0.030142374 0.048209213 -0.13807592 -0.12568274
-0.15493831 -0.010197168 0.0673108 0.109169066 0.022879975 -0.09083116 0.09283507 -0.07583496
-0.00136646 0.12439695 -0.05851922 0.18435983 0.09135769 -0.025777118 0.1456652 -0.18921147
0.014350215 -0.26955056 -0.004134584 -0.2263183 -0.37342057 0.005092617 0.100801036 0.016097395
0.13248079 -0.015977243 -0.09526228 0.04882866 -0.102072895 -0.011720752 -0.015913893 0.15134819
-0.026262918 -0.17629583 0.060014725 0.14737286 -0.15734811 0.18107021 0.17271705 -0.006085663
0.07462648 -0.16610478 -0.18304013 0.02820171 0.10936714 0.18653724 0.09428373 0.021814663
-0.066346906 0.049928337 0.14702074 0.09007055 0.032838617 0.15046412 -0.23565382 -0.053512566
0.20810811 -0.06038887 -0.3908533 0.0294766 -0.01540682 -0.06943711 -0.16823772 -0.08419358
-0.06760058 -0.05639073 0.0899993 -0.09621493 0.117425844 0.119612575 -0.031997602 -0.08503192
0.091153756 0.111374974 0.1299156 -0.19470069 -0.025723882 0.037740473 0.040620107 0.04558696
0.15080915 0.10835403 0.0909551 -0.20231205 -0.072215624 0.11566926 0.03255664 0.08142321
0.0046863677 -0.0023662134 0.09398117 0.2803567 0.020193253 -0.1684443 0.32343158 0.09324942
-0.04799189 0.026736926 -0.08492354 -0.056738332 -0.10983159 -0.09237807 0.10599097 0.004693462
0.058194373 -0.07045925 0.052351072 0.18175061 0.00093097304 -0.016121881 0.14297713 -0.028773729
-0.13357797 0.070820585 0.011234319 -0.057732176 -0.06379035 -0.09229889 0.104837365 -0.057962272
-0.20476863 0.07266636 0.025753599 0.025030926 0.038944714 0.03415245 0.15620871 -0.13919805

conv1.bias f4 [32]
00000000: 112a 1d3e ff8e db3d 53fc 883d acb3 c0bd
00000010: 2b50 953c ec0b b63d 12da fdbd 986e 34bd
00000020: 6e6b e03d 2f48 3c3e 86b8 8fbd 7230 133e
00000030: 6697 db3d 9cd8 a53d 5588 8e3b c9d0 00bd
00000040: 9589 953d 4e8e 893d 8f8f a9bd 4327 45be
00000050: 9a17 323d 9b33 543d d20f e83d 2b84 80bd
00000060: 182b af3d 839e f4bc f283 293e 8c73 2cbe
00000070: 714b e23d 7603 a4bd 66dc 993d 0051 15be
0.15348078 0.10720634 0.06688752 -0.0940927 0.018226704 0.08888993 -0.12395109 -0.044050783
0.109579906 0.18386911 -0.07017617 0.14373949 0.10722236 0.080979556 0.004349748 -0.031449113
0.07301632 0.067165956 -0.08279335 -0.19253258 0.04347954 0.051807027 0.113311425 -0.06275209
0.08553141 -0.02986074 0.1655424 -0.16840953 0.110495456 -0.080084726 0.07512741 -0.1458168

conv2.weight f4 [32, 32, 3, 3]
00000000: b2c5 cdbd e5fe 453d 2c8b b53c c79e e7bd
00000010: 6666 ecbc c397 af3c c629 09bc 0925 72bc
00000020: 4d9a 3ebd b217 7cbd 170a 163d 5f92 1bbd
00000030: 77ed 33bd 5540 693c ac93 27bc 6088 5a3c
00000040: 4f67 20bc 33b4 243d 715d 8d3d d115 043e
00000050: 731f e73c 2e01 bf3d 14b5 863d 01cf 57bc
00000060: 3e97 2ebd 3447 623c 1f91 633d 2d16 9dbd
00000070: 1b82 273d 565c 31bd 3dc3 7fbd 5d66 f3bb
00000080: 2b16 12bb 373a 3f3b 54bc 803d 4635 5dbd
00000090: 17e9 113c d9c7 973d 1b53 dfbc 1c45 aebd
000000a0: 7898 803d 76b7 173c 0e33 38bd 3bb9 27be
000000b0: 0985 203d 114e a1bc c6dd 873d 2314 063d
000000c0: 748a cc3d 6ea2 5ebd c722 06be ee2c b43d
000000d0: b321 b7bd a74d 4a3c d668 be3d 353a 9dbd
000000e0: 1cd4 843d b8ba 9ebb 21cb 21bd 941e a93c
000000f0: b05a 99bd 431f fb3c dda4 8bbc 4028 a53c
00000100: 6d53 513b 5aeb 93bd ab5b 79bc a56e 353e
00000110: 4eeb 813d af65 d93a 2b22 b4bc 6cd9 39bd
00000120: 5470 ffbd 4497 153c a4cf f93b fad3 cfbd
00000130: 89f5 633d 1d50 95bd c87f fa3d 9894 373d
00000140: 8e97 2d3d f899 94bc c359 44bd 9277 64bc
00000150: d948 acbd a00f 4abd 598d a7bd a5b2 a03d
00000160: 31ec c4bd 927a 593d 5899 9f3d a80d 94bb
00000170: cea7 42bd 61e6 8f3d 125a 28bd 8962 043d
00000180: 777c c3bd 2ced 5abd 24f8 7cbb 63b8 58bd
00000190: 68a1 9ebc 888a ecbc 2692 103d 3c55 d8bb
000001a0: 4ec9 ad3c 31d0 4fbd d239 97bd 0063 903c
000001b0: 7d5c c9bc b551 94bd b3aa 89bd d803 043e
000001c0: 958e 893c 2456 023d 4c27 ebba 16ee 1cbe
000001d0: 8fbc 00bc 0df1 fcbb b309 6abd 6be7 d1bd
000001e0: 51c3 3bbc 4cc9 c1bd 2c3f e2bd 7192 f73c
000001f0: 0c8e 693d 9cfe 343d 8aad 73bd 70be bdbc
00000200: 1c03 0e3d e62d 463d 6f05 c53d 4379 923d
00000210: 07d4 fc3b 81ad 0f3e 8b90 313d 40d7 b83c
00000220: 1c4c b03d 0121 eabc 6e90 3a3d b444 5abc
00000230: cc21 d6bc fb15 7abd db3f 29bc 47b0 eabc
00000240: 01f4 d3bd fd27 613b 4aec 40bd 4fb6 91bb
00000250: c28a be3d df06 b3bd 678c e63d 12e6 d83d
00000260: 22e0 af3c 5900 523c 1e6b 923c f155 a63d
00000270: 43ff 46bd 1091 f03c 73b8 47bd dec2 16be
00000280: 807f 0bbe 1bba 9ebd 7b05 0a3e 5161 893d
00000290: 9280 6eba 5bc8 0c3e b357 933d cad1 4b3d
000002a0: f5a6 19bd 8f6f 77bd 9c82 f93c eae2 3cbc
000002b0: 5e32 a5bd 9289 323d d714 993c e215 a7bd
000002c0: e9dd 32bc e34e acbd 1f35 4b3e 0d8d 07bb
000002d0: e598 0abc 22ed 21bd 2cf5 c7bd a614 2d3c
000002e0: 1f16 dabd da19 1f3c 59d0 2c3d f6ef 93ba
000002f0: 049b d43c 2baf faba 2d9b a9bc ec61 163d
00000300: dd22 e23d 235b a83d 0c5b ae3b 8c16 c9bd
00000310: 96dc 17bd a7b7 233d a61f 6b3d 5dc4 bf3d
00000320: ae55 aa3b db93 9ebd a968 48bd b7a8 ccbc
00000330: f73d 4f3d 8186 783d f35a 1abd 7b0f 9a3d
00000340: 0b87 b5bc aa59 93bc 301e 7bbd a8f4 ff3c
00000350: 4d4f 57bd d799 5a3d 4326 203d e109 403d
00000360: 34b8 033e 5bf5 f1bc e51b 813b 107b 853d
00000370: b429 55bd f9d2 373b 51f1 b4bc b4fd e13d
00000380: 6679 a63d b9dc 6e3d 72be 19bd b740 a43d
00000390: 71f5 243d 8b30 ee3d fd8e 2a3d 0ee4 b4bc
000003a0: 45a9 463c bfcb f8bc e6ef 80bd 9c99 03bd
000003b0: bdaf 893c b2f3 5fbb d962 afbc 3e0d f8bd
000003c0: 5c7c d03c 354c 36bc 9235 66bd 8337 433c
000003d0: 9702 62bd 1cfd 7e3d 92ee 61bd 00ba b1bd
000003e0: e2c3 03bd ba6b 1fbe ccdd 223e 473e 5a3c
000003f0: a2a4 3bbd 6bf1 bc3c 8b16 e93d 6e0d b43d
-0.10047473 0.04833879 0.022161089 -0.11309581 -0.028857421 0.02143467 -0.008371776 -0.014779338
-0.04653387 -0.061546035 0.036630716 -0.037981387 -0.043927636 0.014236529 -0.010228079 0.013338178
-0.009790256 0.040210914 0.06902588 0.12898947 0.028213238 0.09326397 0.06577507 -0.013171912
-0.042624705 0.013810921 0.05555832 -0.07670245 0.040895563 -0.04330095 -0.062442053 -0.007427974
-0.0022291045 0.0029178986 0.06285921 -0.054005884 0.008905671 0.07411165 -0.027261307 -0.08509275
0.06279081 0.009260049 -0.044970565 -0.16379254 0.039189372 -0.019690545 0.06634097 0.032734048
0.09987345 -0.054354124 -0.13099204 0.08797632 -0.089419745 0.012347615 0.092973396 -0.07677118
0.06485769 -0.004844036 -0.03950036 0.020644464 -0.074880004 0.030654555 -0.017046386 0.020160794
0.0031940595 -0.07222624 -0.015219609 0.17717989 0.06343709 0.001658609 -0.021988949 -0.045373365
-0.12472597 0.009130303 0.0076236296 -0.10147853 0.055654082 -0.07290671 0.122314036 0.044819444
0.042380862 -0.018139824 -0.047937166 -0.013944523 -0.08412332 -0.049331307 -0.08181257 0.07846574
-0.096153624 0.053095408 0.0779292 -0.0045182295 -0.047523312 0.07026363 -0.041101523 0.032320533
-0.09545224 -0.05344884 -0.0038600052 -0.05291022 -0.019364074 -0.02887465 0.035295628 -0.0066019576
0.021214154 -0.050735656 -0.07384075 0.017625332 -0.024580235 -0.07242147 -0.067220114 0.12892091
0.016791621 0.03182043 -0.0017940789 -0.15325198 -0.007857456 -0.007719165 -0.057138156 -0.102492176
-0.011460141 -0.094622225 -0.11047205 0.030221196 0.057020232 0.044188127 -0.05949167 -0.023162097
0.034670934 0.048383616 0.09620177 0.07152035 0.0077157053 0.1403103 0.043350738 0.022563577
0.08608267 -0.02858019 0.045547895 -0.013322044 -0.026139162 -0.06105612 -0.010330166 -0.028648509
-0.103492744 0.003435611 -0.047100343 -0.0044467817 0.0930381 -0.08741545 0.11257248 0.105907574
0.02146918 0.012817466 0.017873343 0.08121861 -0.04858328 0.029366046 -0.04875989 -0.14722773
-0.13622856 -0.077503406 0.13478653 0.06708015 -0.0009098138 0.13748305 0.07194462 0.049760617
-0.03751274 -0.060409125 0.030457787 -0.01152871 -0.080662474 0.04358823 0.018686695 -0.08158471
-0.010917165 -0.08413484 0.19844483 -0.0020683438 -0.008459304 -0.039532788 -0.0976356 0.010564005
-0.106487505 0.009710753 0.042190883 -0.0011286724 0.025952823 -0.001912569 -0.020703876 0.03671448
0.11041806 0.08220508 0.005320912 -0.098187536 -0.0370756 0.039970066 0.05740323 0.09363625
0.005198202 -0.07743045 -0.048927937 -0.024982793 0.050596204 0.060675148 -0.037684392 0.07522484
-0.02215912 -0.017987091 -0.061308086 0.03124459 -0.05256586 0.05336937 0.03909899 0.04688442
0.12863237 -0.02953594 0.003940093 0.06517613 -0.052041724 0.0028049333 -0.022087725 0.11034718
0.08128624 0.058315966 -0.03753514 0.08020156 0.040273134 0.116303526 0.04164027 -0.022081401
0.012125318 -0.030370591 -0.06295757 -0.032128915 0.016807431 -0.0034172353 -0.021409439 -0.12111901
0.025449924 -0.011126568 -0.056203432 0.0119150905 -0.05517825 0.062253103 -0.05515916 -0.08678055
-0.03216923 -0.15568438 0.15904921 0.013320512 -0.045811303 0.023064336 0.11381253 0.08791624

conv2.bias f4 [32]
00000000: 501f 513a a06a 7abd 5101 b33a add2 533d
00000010: 7790 8a3c e2dd dfbc 83f0 01ba 1666 423c
00000020: 2766 d93c d3eb 15bc fa3d 99bd 68c3 a93d
00000030: 451d 9d3d 52ad 0fbd 62e4 a73c 4a3e 0bbd
00000040: df38 e33c e689 12bd 5c1a 07bd 0eb6 96bd
00000050: b50f 79bc 7038 9d3a 5d42 37bd 7fe0 0fbd
00000060: c56c 70bd c756 583d 4c62 12bd dfd8 1fbd
00000070: 84f6 7bbd 93b9 bb3a 69c8 003d b741 a1bd
0.0007977383 -0.06113684 0.0013657009 0.051714588 0.01691459 -0.027327482 -0.00049567985 0.0118651595
0.026537968 -0.009150463 -0.07482524 0.08289224 0.07671598 -0.0350774 0.020494644 -0.03399495
0.02773708 -0.03577604 -0.032984123 -0.07358943 -0.015201499 0.0011994969 -0.044741023 -0.035126206
-0.05869748 0.052817132 -0.035738274 -0.039025184 -0.061514392 0.0014322273 0.031441126 -0.07873862

conv3.weight f4 [32, 32, 3, 3]
00000000: 5a1a 053e ddad ab3d 59b1 9cbd de24 84be
00000010: 8ed8 5a3d d77b 1d3a e585 a33c 869b 29bd
00000020: 27c6 523d 8acc ee3d f564 ba3c 1a8b f7bc
00000030: bf0e 84bb 822a cd3c cfcb 29bd b847 32be
00000040: 6f37 86bd 1e62 813d f1b0 80bc 0758 a8bd
00000050: 3ce8 46bd e5f1 18bc 98ae fbbc 6527 563d
00000060: 72f5 7f3e 3066 733d 4a19 4f3d 96ad bc3c
00000070: 1107 f63c 4b43 7c3d 170e 1abe 422e 863c
00000080: 9302 87bd deaf 623b 3a58 b0bd 4ef2 6cbd
00000090: b3a9 3f3d 809d 7fbd 03d0 7fbc 1410 1a3e
000000a0: 3127 3b3d b3d1 6e3d 3d07 97bd 0294 02bd
000000b0: 6cd0 d13c 5aee 19bc 08c5 5abd 8a4c cd3d
000000c0: 2cef 933e 309f 233d 84f6 abbb 4022 39be
000000d0: 85d9 91bd 00a8 b3bd 10a9 a23d 0f24 cb3d
000000e0: 65db 49bd e4ec 07be cb89 053d bec3 1c3c
000000f0: f72c c4bd ea8b 793c 041c e13d 1860 413d
00000100: d9a7 bb3d 74c7 313d 3a45 313e 8ed6 af3d
00000110: 8f2e acbc b573 953c 1f18 a3bd 9233 3dbe
00000120: 3cff 1a3e f88f 3b3d ed93 dcbd aa8d 02bf
00000130: 8a61 9fbd 36bf bbba 3a32 4a3d ee8a 883d
00000140: aa39 ea3c da98 2d3e b56e 833d 17df eb3c
00000150: 0f8f bbbd f6f5 82bd da71 b3bd 6051 34bd
00000160: 508f 76bc 0b9d 8dbc 8511 7ebd b23d acbd
00000170: 11f2 46bd ac28 1a3d 9324 82bd 42b9 11bd
00000180: a5d6 043d 6e02 363d 9aa6 133e 398d 163d
00000190: 029c 483d 2488 e3bb 3b40 5b3d b323 1d3c
000001a0: 126a e5bb 9190 7c3d eff4 6e3c bf00 a83d
000001b0: 0b30 8d3c 4cb9 683c db2e 84bd 72a3 59bd
000001c0: e396 00bc 9835 533d 4af5 f93d 585d c03d
000001d0: 4dac be3d d9ce 503c 3f04 8c3b 258b e43c
000001e0: c921 78bd 3f19 723d a8e4 34bd 1bf9 81bd
000001f0: edf9 423c 66c4 9bbd 45f4 d93d d19e b93d
00000200: 26ab 963d c446 693c 1b32 1c3d cee9 a4bd
00000210: dd3f 07bd a541 8abd 104b 2ebe a266 83bc
00000220: bb90 dabc fa6a 93bd 9780 ea3c 9412 09bc
00000230: acdc ac3d 09a2 af3c dae0 8cbc 17e9 d43d
00000240: 06f8 3b3e 123c 903d cd4f dcbc 559c 15be
00000250: a156 68bc bc79 a6ba 4054 f1bd 1a6b b33c
00000260: dff3 6bbd 2263 263d 4bbe 453c 7354 2fbd
00000270: a227 0fbe eee6 0cbd e1f7 4dbc cab0 4c3d
00000280: 442b 813b 83c1 3cbd 1292 87be ddcb 10be
00000290: fe67 033d af54 ca3c ba5d b6bd 9eb6 e53b
000002a0: 12d9 5e3e 7df7 253d 503d b1ba 859a e6bd
000002b0: 3a71 a53a 3961 d43c 5c66 35bd 4419 e9bb
000002c0: 412c 803d ce9d 0a3e ba5e a13c 9c0d fabc
000002d0: a6b4 de3d a299 54bc 5908 bebc 13f3 85bc
000002e0: 0c12 c0bb f5a4 e83a 93de b43c 6dd7 68bb
000002f0: 4ff4 22be c789 4d3e fe99 973d 766d df3c
00000300: 67f0 00be 4fca bdbd 314c 62bd ae0c 9bbd
00000310: 397a cabb 4766 dbbc fe92 82bd 1aeb 783d
00000320: ebed 453c ab0c a3bd a949 08bd d0c8 68bd
00000330: a891 b83c 8ba9 13bd 16fc 23bb 7832 ddbd
00000340: 3644 dcbd cef5 203b 1070 f13d 22b5 583b
00000350: 084c b7bc 64e1 dc3d 4007 493d fe7f acbd
00000360: 3468 6fbd 962d 11bd 6eb3 ef3c 53b9 9b3d
00000370: d681 393c eb74 4fbd ecf0 413d 5dc3 4dbd
00000380: 3a88 7abc ca9b 40be c404 dabc 0574 3ebd
00000390: 79a4 bf3b 6b92 533b 5f73 f3bc 9a47 eb3d
000003a0: 8aba 46bd aafb 723d e161 d5bd 411e 35bc
000003b0: 18dd ac3a 4207 223e 161f 053c 1920 623c
000003c0: 62c1 313e 7d2d 88bd cd9e f03a 52ed a5bd
000003d0: 9cfc d43c 5e2a 14bc b039 3abb 5e13 3e3d
000003e0: 9c44 d7ba 7dde 193e 8fe5 d33c da07 b9bd
000003f0: 09e6 33bd 380f ecbd 760a 89bd 430c dcbd
0.12998334 0.08382771 -0.07651014 -0.25809377 0.05342918 0.0006007528 0.019961307 -0.041408084
0.051458504 0.116601065 0.022753218 -0.030217696 -0.004030078 0.025044683 -0.041454133 -0.17410171
-0.06553542 0.063175425 -0.015709372 -0.08219915 -0.04856132 -0.009335016 -0.030722901 0.052283663
0.24995974 0.059423625 0.050561227 0.023031991 0.030032666 0.061587613 -0.15044437 0.01637948
-0.06592288 0.0034589688 -0.08610578 -0.057848267 0.046792697 -0.062406063 -0.015613559 0.15045196
0.045691673 0.058305454 -0.073744275 -0.031879432 0.025612079 -0.009395206 -0.05341056 0.10024364
0.2889341 0.039946735 -0.005247893 -0.18079472 -0.07121567 -0.08772278 0.07942402 0.09918987
-0.049281497 -0.1327396 0.032602113 0.009568153 -0.09578889 0.015231112 0.10991672 0.047210783
0.09162874 0.043403104 0.17311564 0.08585845 -0.021018295 0.01824365 -0.07963585 -0.18476704
0.15136427 0.045791596 -0.10770402 -0.5099741 -0.07782276 -0.0014323953 0.049364306 0.06667124
0.02859195 0.1695284 0.064176 0.028792901 -0.09158146 -0.063945696 -0.0876195 -0.044022918
-0.015048817 -0.017286798 -0.062028427 -0.08410205 -0.048570696 0.037636444 -0.06354632 -0.035577066
0.032431263 0.04443591 0.14419022 0.036755774 0.048976906 -0.0069437195 0.05352805 0.009591031
-0.00700117 0.061661307 0.014584764 0.08203267 0.017234823 0.0142043345 -0.064542495 -0.05313439
-0.007848474 0.051564783 0.12204988 0.09392804 0.093102075 0.012744629 0.004272967 0.02789838
-0.060579095 0.059106108 -0.044163376 -0.06346341 0.011900407 -0.076058194 0.10642294 0.09063495
0.07356863 0.014238063 0.03813372 -0.08052407 -0.03301989 -0.06750802 -0.17020822 -0.01604015
-0.026680341 -0.071981385 0.02862577 -0.008366246 0.08440527 0.02143957 -0.017197061 0.10396021
0.18356332 0.070427075 -0.02689352 -0.14610417 -0.01418081 -0.0012701075 -0.117836475 0.021901656
-0.05760562 0.040621884 0.012069295 -0.042805146 -0.13979962 -0.03439992 -0.012571306 0.049973287
0.0039419252 -0.046082985 -0.2647863 -0.14140268 0.032081597 0.024698583 -0.08904596 0.007010295
0.21762493 0.040519226 -0.0013522301 -0.11259941 0.0012622245 0.025925266 -0.04428707 -0.0071136076
0.06258441 0.1353676 0.01969849 -0.030524068 0.108743 -0.012976082 -0.02319734 -0.016351258
-0.0058615264 0.0017749356 0.022078788 -0.0035528794 -0.15913509 0.20072089 0.074024186 0.027273875
-0.12591706 -0.09267103 -0.055248443 -0.07570778 -0.006179121 -0.026782168 -0.06375693 0.060771085
0.01208065 -0.079614006 -0.033273373 -0.056832135 0.022530392 -0.03605036 -0.002502208 -0.10800642
-0.10755198 0.0024560574 0.11788952 0.0033066948 -0.022375122 0.10785177 0.04907918 -0.0842285
-0.058448985 -0.035443865 0.029260363 0.07603707 0.011322459 -0.05064861 0.0473489 -0.05023514
-0.015291268 -0.18809429 -0.0266136 -0.046497364 0.005848464 0.0032283317 -0.0297181 0.11488266
-0.04851774 0.059322037 -0.104190595 -0.011054576 0.001318845 0.15823081 0.008125087 0.013801598
0.17358926 -0.06649301 0.0018357873 -0.08101906 0.02599936 -0.009043304 -0.0028415732 0.04640519
-0.0016423645 0.15026279 0.025866298 -0.09034701 -0.04392055 -0.1152634 -0.066914484 -0.10744526

conv3.bias f4 [32]
00000000: 3552 7fbd 4a83 02be 801e 213b 267e 03bd
00000010: d9a5 77bd 2f32 283d adfd 5ebb 65be 7f3d
00000020: 568f 793d 3340 4aba 0996 0cbd c1be 083d
00000030: 97c8 1e3c 74a6 263c b9a5 923d ce33 0f3d
00000040: 753a 4bbd 9cff 6bbd f03d d33c 35c9 243d
00000050: 3dc5 19bc 9723 6fbd d86a cbbd 674f f2bc
00000060: ce9c 9ebc a51b eebb f8a1 4ebd 0693 153d
00000070: 87be 4cbd 7545 27bd 0089 c73c ca3e ab3c
-0.062334258 -0.12745395 0.002458483 -0.032102726 -0.0604609 0.041063484 -0.0034025714 0.062437434
0.06092771 -0.0007715255 -0.034322772 0.033385042 0.009691379 0.010171521 0.07160515 0.034961514
-0.049616296 -0.057616815 0.02578637 0.04023095 -0.009385404 -0.05838355 -0.09932488 -0.029578878
-0.01936188 -0.007266479 -0.050447434 0.036517166 -0.04998639 -0.040837724 0.024357319 0.020903964

dence1.weight f4 [128, 512]
00000000: 4ad9 e53b 3ceb e5bc 5b45 93bc e594 cf3c
00000010: 457d 97bc aeb2 b6bb cedb 1d3d 97be 593d
00000020: aa92 47be 14d9 b7bc 6e3e 90bc 140d 013c
00000030: 2e5d 843e 7873 b63d d2e8 4cbd 9090 7bbd
00000040: 5121 37bd 450b fb3c 89d8 eabc 4fef 8b3b
00000050: b452 34bb b806 a0bc 781b 93bc fbb5 e6bc
00000060: a9ca 9cbc 8f9c e93c 958f b83c e908 c8bc
00000070: 8851 973c d6e8 ba3b 8556 f5bc 8129 9cbc
00000080: a894 a1bb 8dde 67bc 4552 64bb d045 f0bc
00000090: cde5 45bd 94f1 1c3b 3eb3 523c 3a51 47bd
000000a0: 3085 893d 6a4a 2d3d 1881 dc3d 1518 a23b
000000b0: b49a 84bd 2b39 b7bd 7ce4 0cbd 99ce 9ebc
000000c0: 2521 48bd bb0a be3c bc82 40bc 873f 4b3d
000000d0: dc95 87bb 7ade 55bd 14c4 26bd 541f ff3c
000000e0: b319 c7bd d31c e6bd e7f8 15bc a7e8 483d
000000f0: b7ad 903e 33c8 d53d a0e6 04bd dab2 40be
00000100: d328 283d 8736 5bbc f7a0 543c f266 483c
00000110: e4b0 2e3d 61c1 f3bc da1f adbc f9e6 d53c
00000120: d804 913c 60f2 c439 7460 c93c 71ea d73b
00000130: 2123 243c 5ba2 c9bc ec4b bebc 4424 a03c
00000140: d455 c0bc 3eb2 143c 0151 1ebb 79c2 8c3c
00000150: b78c 603c a451 29bc 0ccd ba3c e2f1 18bc
00000160: 6a5e e3bd 2c73 e5bd bb60 7dbd 2ea2 023c
00000170: 543b 733e adf8 013e fbfc b4bd a2e9 bfbc
00000180: 1d0d 1cbd c5b6 f83c 995c 58bd bd85 123d
00000190: 9af5 b83b 828a dc3c 4985 ed3c 479c 2ebd
000001a0: 55b6 ecbc b143 adbd 9c27 303d 6b31 1e3c
000001b0: 6448 363e c580 893d a399 9abd 9b1d 9bbd
000001c0: 3b01 3abb 4ece 62bc 409d 013c 10c2 4a3b
000001d0: 1343 dfbb fc1b bcbc 32a8 85bd edd0 7fbd
000001e0: 52cf d2ba 5308 c6bd 1192 13ba 0272 40bc
000001f0: 4c56 26bd 9b1a 953d 97cd 13bd 21bb dfbb
00000200: e87d 0ebd 87be d13c 99c5 e8bc 5638 f4bb
00000210: 4ad0 dabc 241c 5abd aae2 9cbc e2c2 d63c
00000220: d0f9 853d 3b77 93bd d68c cbbb 4b8d 42bd
00000230: eece 13bd faf5 c43c cf7c 4cbc 3dc3 0d3c
00000240: 838f 0fbd 8351 e8bc 418e 903c 9e40 e4bb
00000250: 0b92 debc 6381 0f3c c429 50bc 25fd 2b3d
00000260: 797b 18be 2c23 ad3c e3a0 d5ba e2b6 163d
00000270: 984d 7f3e c4e5 c33c fbbe b2bc 28ad cebd
00000280: 8357 033d b9ac 3d3b 9e2d cabb ed99 2bbb
00000290: 5b0b f8bc b04c dbbb f8b7 1f3d 84e3 0f3d
000002a0: 286f 8abd f19c 1bbd 3269 9dbc bc16 873b
000002b0: e682 363e 8827 633d 301d 7e3b fa5c fcbd
000002c0: ede9 73bc 359f 3a3c ccea 2a3d cc30 cb3c
000002d0: 191a babc 8a26 083c 8754 013d 309e 25bd
000002e0: fdcf 3c3e bedf b93d e1c7 c13d a3ed 24bd
000002f0: 9973 70bd 868d adbd c36f 9f3a 8e9a c5bc
00000300: 6c48 a0bb 7c7e 103d 8c4d ef3c 5b43 a9bc
00000310: 34d3 6a3c c2c2 13bc d798 ba3c 98b4 47bd
00000320: a8cc c13b 66cb d1bc 6979 bd3d df86 fc3c
00000330: f96d 80bd b128 a5bd c0ec 1ebd e799 893d
00000340: 3d24 b9bc b22c 0b3d 9d0b 10bc 9bcb cc3c
00000350: 3420 acbb c6b7 79bc 1692 38ba e7b6 f43c
00000360: 9db8 263d a33a 83bc abb5 75bb b4a7 bcbc
00000370: f4b2 e9bd e3d0 473d 9157 6c3d 9bc7 033e
00000380: ef06 6cbd 3c42 1f3b 9e18 ec3a 1a9c 16bd
00000390: f201 84bc f15c 4bbc 83c4 f2ba c95a 513b
000003a0: 301f eb3d 43a0 cc3d d6a9 18bd 6f96 003a
000003b0: 30b4 d9bc ed06 ffbd 8d5a e7bb 7f73 383b
000003c0: f2ad 17bc b07e 34bc c290 0cbd 943b 02bc
000003d0: e80c 2fbd e698 d6bc cb02 75bd 3baa d53b
000003e0: 4314 8f3d 01dc 29bd 4bf7 3f3d a83c 54bd
000003f0: 3169 a9bd ea06 c43b d3fc 42bd 9570 0abc
0.0070144283 -0.02806627 -0.017977407 0.025339553 -0.01849235 -0.0055754995 0.0385397 0.053160276
-0.19489542 -0.022442378 -0.017607894 0.007876653 0.2585234 0.08908743 -0.050026722 -0.061417162
-0.044709507 0.030645022 -0.028667705 0.004270471 -0.0027515115 -0.019534454 -0.017957434 -0.028162947
-0.019139605 0.028517036 0.022529403 -0.024418311 0.018471494 0.0057040257 -0.029948482 -0.01906276
-0.0049310513 -0.014152181 -0.0034839076 -0.029330164 -0.04831486 0.0023947703 0.0128601175 -0.048661448
0.067148566 0.042307295 0.1076681 0.0049467185 -0.0647482 -0.08946451 -0.034397587 -0.019385623
-0.048859734 0.023198476 -0.0117499195 0.04962113 -0.0041377377 -0.052214123 -0.04071434 0.031142868
-0.097216986 -0.112359665 -0.009153581 0.04905 0.28257534 0.104385756 -0.032446504 -0.18818226
0.041054558 -0.0133797 0.01297783 0.012231575 0.042649165 -0.029755296 -0.021133352 0.026111113
0.017702505 0.00037564617 0.024582125 0.006589227 0.010018141 -0.02461355 -0.023229562 0.019548543
-0.023478426 0.009075699 -0.0024157169 0.017182576 0.013705424 -0.010334406 0.022802852 -0.009335013
-0.111019924 -0.11203608 -0.061859827 0.007973237 0.237531 0.12692519 -0.08837315 -0.023426834
-0.038098443 0.030360589 -0.052822683 0.035772074 0.0056445124 0.026921514 0.02899422 -0.042629506
-0.028895536 -0.08460177 0.043006524 0.009655337 0.17801052 0.06714014 -0.07548835 -0.07574006
-0.002838208 -0.013843132 0.0079110265 0.0030938424 -0.006813416 -0.022962563 -0.06526221 -0.062455107
-0.0016083515 -0.096695565 -0.00056293706 -0.011745932 -0.040609643 0.07280465 -0.036084738 -0.0068277274
-0.034788042 0.025603546 -0.028414534 -0.007453005 -0.026710648 -0.053249493 -0.01915105 0.026215974
0.065417886 -0.07200476 -0.0062118573 -0.04749803 -0.036086015 0.024043072 -0.012480929 0.008652505
-0.035048973 -0.02835918 0.017645957 -0.006965711 -0.027169248 0.008758876 -0.01270527 0.041989464
-0.14890851 0.021134935 -0.0016298558 0.036795504 0.24931943 0.023913272 -0.021819582 -0.10091621
0.03206588 0.0028942062 -0.006169989 -0.0026184276 -0.030278852 -0.0066924915 0.038993806 0.035129085
-0.067594826 -0.037991468 -0.0192152 0.004122583 0.17823371 0.05545762 0.0038774721 -0.12322421
-0.014887315 0.011390497 0.041727826 0.024803542 -0.022717522 0.00830997 0.031574752 -0.040434062
0.18438716 0.090758786 0.09461952 -0.04026569 -0.058703993 -0.08474259 0.0012164045 -0.024121549
-0.004891446 0.035276875 0.029211782 -0.020662 0.014332581 -0.009018602 0.022777958 -0.048756212
0.0059142895 -0.025609683 0.09251673 0.03082603 -0.062709756 -0.08064402 -0.0388 0.06718808
-0.022600288 0.03397817 -0.008791831 0.02499943 -0.0052528623 -0.015241569 -0.00070408115 0.02987237
0.040703405 -0.016019171 -0.0037492316 -0.023029186 -0.11411086 0.048783194 0.057700697 0.12869112
-0.0576238 0.0024300953 0.0018012708 -0.036769964 -0.016114209 -0.012412296 -0.00185217 0.0031944981
0.11480558 0.09991505 -0.037271343 0.0004905229 -0.026575178 -0.12452493 -0.007060355 0.0028145013
-0.00925778 -0.011016533 -0.03431774 -0.007948775 -0.042736918 -0.026195955 -0.059817117 0.006520537
0.069862865 -0.041469578 0.046866696 -0.05181566 -0.08272017 0.0059822695 -0.047604393 -0.008449693

dence1.bias f4 [128]
00000000: 7a80 723b 7a21 913d bd57 96bd c5a9 dc3c
00000010: 5432 c6bc b7fc a63c 32c0 0bbd ae94 0f3d
00000020: 4d94 d5bc d9f6 a63d 5785 25be 202a db3c
00000030: 4152 45bd 9ef4 f0bb 8321 773d ced0 17bc
00000040: a56d 4dbd 617b 813c 4f77 293d fd78 0c3d
00000050: 01d2 ccbd fbd3 06bd 23ea aebd 849f 803d
00000060: 3e28 34bd 81ee 43bd e8fe 2cbe 5c40 4f3d
00000070: c7fe 6cbd b256 19be 00d9 073d e223 83bd
00000080: f741 203d 3dd3 82bd 9bd3 96bc 8657 293c
00000090: 4dae c0bd 35b6 373d f3a5 5e3d ac64 17be
000000a0: e2f1 c43c a779 233a aea2 0dbe f4f6 bdb9
000000b0: 9874 c43d ac9f 4d3d abd5 7c3c 21a0 9d3d
000000c0: 3cf6 9a3c ee57 143c 0324 343d 4f50 92bd
000000d0: 8d1b c93d 837c 823c 7fa8 19be e9d1 503d
000000e0: de0f 323d 79e2 8b3d e367 bfbd 8dd2 2bbd
000000f0: 26ea 04be d50e 773c 195a 06be 07a4 10be
00000100: 76e2 763d 35f0 953d 3be5 853d 3eca 143d
00000110: 6df3 853d 8367 a83d 7c36 1d3c dbb6 c2bd
00000120: a687 73bc 27a6 6b3d 08fc cbbd 4fb5 1b3d
00000130: 43b3 aabd 2168 9d3d 1de5 b23d 3300 dd3c
00000140: 5b6c 1cbe e1af 8e3c 55a7 a53c bcd1 10be
00000150: 7462 0abe bfd6 efbd 594e b43b d19b d9bd
00000160: 73b2 55bc 8b64 9e3c 3947 89bc 0bd6 943d
00000170: 3c64 c63c e3cd 08be e43e 27bc 4fd9 91bd
00000180: 0b4a bf3c 21a6 923d c79b 783b 338c 2d3d
00000190: 171c ae3d e2d9 663b 76fd f93b 045f 82bd
000001a0: 97e4 573d f2bc 65bb 8b02 8c3d 1da9 06bd
000001b0: 9a55 c5bd f37b e83c c5f5 95bd 7f0a 79bc
000001c0: 9d18 bf3d 6a36 5e3d 2d47 9d3c 43a2 003d
000001d0: 94be 6fbc edfd d2bd b56b f73b 8a73 a43d
000001e0: e141 743d 73c1 a6bd f396 883b e2a2 053d
000001f0: bb8f fdbc 5af7 753b abe2 673c 9edf 233d
0.0037002848 0.07086463 -0.073409535 0.026936421 -0.02419392 0.020384176 -0.03411884 0.0350539
-0.026071692 0.08152551 -0.16164146 0.026753485 -0.048174147 -0.0073533794 0.060334694 -0.0092660915
-0.050153393 0.015805902 0.041373547 0.03429507 -0.100009926 -0.032917004 -0.08540752 0.06280425
-0.04398369 -0.047834877 -0.16894114 0.050598487 -0.057860162 -0.14974478 0.03316593 -0.064033285
0.03912541 -0.06387947 -0.018411448 0.010335809 -0.09408245 0.0448515 0.05435748 -0.14784497
0.02404112 0.0006236084 -0.13831589 -0.00036232884 0.09592551 0.050201103 0.015431802 0.07696558
0.018916242 0.009054167 0.043979656 -0.07144224 0.09819708 0.015928512 -0.15005682 0.050981436
0.043472163 0.068303056 -0.09345987 -0.041948844 -0.12979946 0.01507922 -0.13120307 -0.14125071
0.060274564 0.073212065 0.06537863 0.036325686 0.065405704 0.08222868 0.00959551 -0.09507533
-0.014863884 0.057531502 -0.099601805 0.038014706 -0.08334973 0.07685877 0.08735106 0.026977634
-0.1527571 0.01741785 0.020221392 -0.14142507 -0.1351412 -0.117108814 0.005502504 -0.10625423
-0.013043034 0.019335052 -0.016757594 0.07267388 0.024217717 -0.1335979 -0.010207865 -0.071215264
0.023350736 0.07160593 0.0037934647 0.042370033 0.085014515 0.0035225083 0.007629092 -0.06365779
0.052708235 -0.0035055247 0.068364225 -0.032876123 -0.09635468 0.028379416 -0.073222674 -0.015200256
0.093308665 0.054251112 0.019198978 0.031404745 -0.01463284 -0.10302339 0.0075506815 0.0802985
0.05963314 -0.08142366 0.004168385 0.03262604 -0.030952325 0.0037531466 0.014153163 0.04000818

to_logits.weight f4 [14, 128]
00000000: 0727 48bd bf1e 15bd 0dc7 40bd 0cfc 54bd
00000010: 8f7c a93d 1998 b73d 0db9 e93c 124d 163e
00000020: 07bf 7cbd f249 c43c ea77 d23d 5aba c0bc
00000030: 8109 debd 8bc1 de3d 40a6 263d cc1e c1bc
00000040: a0dc 1d3e a8cb 0d3d e3ec 53bc 3dd4 e6bd
00000050: 3fd6 f53d ffe8 843d 3690 0a3c 7902 78bd
00000060: 71c4 18bd 0654 863d 3653 5f3d 03f2 acbc
00000070: 91aa 1dbe 4218 073e a5a2 2a3e 6cde 16be
00000080: 143d a0bd 06f7 dcbd 3d14 283e 3e5f 973d
00000090: 38c5 613c 23fb debb 5ce3 73bc fed9 243d
000000a0: c4fc 4d3d 2eb5 0abe 39c6 f6bc 975c 093e
000000b0: 3731 d2bd 715f 873d 9708 013e ea63 a9bc
000000c0: 09d3 23be b458 a7bd 958b a3bd 6e3e 9a3d
000000d0: 9aa9 1a3d 0bbb c33c f3ab ba3d 6344 1c3e
000000e0: a9a5 8b3d 75ee ddbd eb26 173c 00a6 05be
000000f0: 0b36 893d 0c4b c13c 1ad6 493d e5b7 36bd
00000100: e8e2 bf3c da0d 79bd 9465 793d 9931 34bd
00000110: ae7a 19bc 75c1 663d a18d 983c cb70 e03d
00000120: 0a35 9fbd a2d5 de3d 477a 90bc 2f97 aab8
00000130: d791 1e3d 1067 80bd 963d 74bd 3382 91bd
00000140: be17 073e fa9b ef3d d96a db3a 0784 9c3a
00000150: fe8e 973d 4d88 133c 8a80 66bd bb1e b6bc
00000160: 1d61 2cbd ab1e aebc 0293 ba3d 543c 82bd
00000170: 6394 29be b9db 03bd 620f 09be 3dcb 523d
00000180: 6145 b4bd 0e78 ddbd b9a3 91bd cd07 de3c
00000190: d015 623d 4b21 103b 94a7 6b3c 0f78 163d
000001a0: 51b7 e83d e413 c83d 76d8 2abc 48eb 05bd
000001b0: 2641 4abd 6efa 9ebc 9e43 963d d695 bfbd
000001c0: ffe2 ce3c c944 02bd 6b4c 42bd 9731 323e
000001d0: d45c ad3d b2f1 c83d e093 a0bc c086 323e
000001e0: 10c0 813d 3070 bc3d fa98 b83d c217 13bd
000001f0: 6d46 56bb 7cd8 d03d 7727 37bb e3aa a53d
00000200: 435a 2fbd ee89 b83d 1e3e 68bd 580b b2bb
00000210: a791 213e adf7 0fbd 9302 38be 746a 553e
00000220: a444 1cbe 2c1d 843c 2610 8d3d a2ed 033c
00000230: 90b9 adba 0c29 e93d 18da e8bb 4cc9 883d
00000240: 5648 e6bc b4fe 273e b4c7 bd3d e21e babc
00000250: 9982 103d a864 a93d a090 c33d 9759 c2bd
00000260: e7d4 0dbe 3fbf 5f3b a8cb bdbc 16ba a2bc
00000270: f2cb 9bbd 5911 0d3e 34be fc3d 2d3a 923b
00000280: c6fb aabd 5abe 18be 2dd1 73bd 6623 0fbe
00000290: 1299 a33d 5890 7d3d 24e7 c6bb 1237 97bb
000002a0: ae49 c63d 2997 9bbd e1b7 773d 9581 f83d
000002b0: 2986 0a3d 10ab fa3c b9d8 a23d 856a 643d
000002c0: 278b e8bd 50e5 163e 8f5c ce3b c230 8e3d
000002d0: 2152 403d 8fde 43bc 595e 17bd 2cdc f03d
000002e0: a626 00be c5e0 37bd 2b7a b23c df29 f1bd
000002f0: 60d0 ca3d 9f43 3b3d 6845 25bc 41c9 183d
00000300: 2d5d 773d 3658 003b a57e 68bd 03e2 313d
00000310: e36b 9cbd 9f24 7d3d 9d3f 173e 4cfe 9b3c
00000320: be66 40bb 3117 f73d e773 7a3d 785e 39bd
00000330: bf69 ecbc 3e76 89bd 3ef5 6fbd f5a0 0fbe
00000340: f042 a33c 5ce8 e83d cb9c dbbd 8dcf 4d3d
00000350: 1bf4 b63d 83f7 af3d 8158 57be 1a70 e53d
00000360: 7e07 5ebe 99d5 03bd 3384 98bc 99d6 aabc
00000370: 9a77 f03c 6661 453d 7b0f d0bd 0dc0 913b
00000380: 2f73 e6bd d726 c7bd 033a 06be f88e b7bc
00000390: e465 703d 095d 1abd 2581 063d ce75 71bc
000003a0: c92b d33b 038b f53d af49 07bd 52da 2cbd
000003b0: d390 3c3d 9d8c 063d 10e3 c03d aaec 35be
000003c0: 2d8e e8bd 6035 ed3c 3a66 3f3c c43c 2c3e
000003d0: 2657 8e3d cb21 f23d 5a28 513c d9df 5c3d
000003e0: 3a10 113e 3a16 483c 74a9 5f3d 914f e53c
000003f0: c723 443c fae2 8fbd eb1e 9a3c f7ea b23b
-0.048865344 -0.036406275 -0.04706483 -0.051998183 0.08275711 0.08964557 0.028530622 0.14677837
-0.061705615 0.023961041 0.10276778 -0.02352636 -0.108416565 0.10876759 0.040685892 -0.023574255
0.15416193 0.03461805 -0.012934896 -0.1127095 0.12003755 0.06489753 0.008457234 -0.060549233
-0.037296716 0.06558995 0.054522716 -0.021111494 -0.15397097 0.13192847 0.16663606 -0.14733285
-0.0782415 -0.107893035 0.1641397 0.07391213 0.013779931 -0.00680484 -0.01488575 0.040246956
0.050289884 -0.13545677 -0.030123817 0.13414226 -0.10263293 0.06610001 0.12600933 -0.020677526
-0.15998472 -0.08171216 -0.079856075 0.07531439 0.0377594 0.0238929 0.09114828 0.15260462
0.068187065 -0.10836498 0.009225587 -0.13051605 0.06699761 0.023595355 0.04927645 -0.04460897
0.023423627 -0.060804226 0.060887888 -0.043992613 -0.009367628 0.05633684 0.018622221 0.109590136
-0.07773788 0.10880591 -0.017636431 -8.134392e-05 0.038713302 -0.062696576 -0.059629045 -0.07104912
0.1319265 0.11699672 0.0016740217 0.0011941203 0.074003205 0.009004665 -0.05627493 -0.02223145
-0.042084802 -0.021254858 0.09110071 -0.06359163 -0.16560511 -0.032191966 -0.13384774 0.051463354
-0.088022955 -0.10813914 -0.07111306 0.02710333 0.055196583 0.00219925 0.014383215 0.03673559
0.1136309 0.09769419 -0.010427585 -0.032695085 -0.049378537 -0.019406524 0.07337116 -0.09354751
0.025254725 -0.03180388 -0.04743616 0.1740173 0.08464971 0.09811725 -0.019601762 0.17434216
0.06335461 0.092010856 0.09013553 -0.03591133 -0.0032695786 0.10197541 -0.0027947107 0.08089235
-0.04281069 0.09010683 -0.056699865 -0.005433481 0.15778218 -0.03514831 -0.17969732 0.2084139
-0.1526056 0.016127191 0.06887846 0.008052262 -0.0013254154 0.11384782 -0.007106077 0.06679019
-0.028110664 0.16405755 0.09266606 -0.022719804 0.035280798 0.08271152 0.095490694 -0.09489744
-0.13850747 0.0034141091 -0.0231684 -0.019864123 -0.07607259 0.13776149 0.12340966 0.0044625015
-0.08348803 -0.14916363 -0.059525657 -0.13978347 0.0798818 0.061905235 -0.0060700346 -0.004614719
0.09682022 -0.07597191 0.060478095 0.12134091 0.03381935 0.030599147 0.07951493 0.055765647
-0.11354666 0.14735913 0.006297655 0.069428936 0.046953324 -0.011954918 -0.03695521 0.117607445
-0.12514743 -0.04489209 0.02178677 -0.117755644 0.099030256 0.045718785 -0.0100873485 0.037301306
0.060391594 0.0019583828 -0.056761403 0.043428432 -0.07637765 0.061802503 0.1477036 0.019042157
-0.0029358114 0.1206497 0.06114569 -0.045256108 -0.028859017 -0.06712006 -0.05858349 -0.14026244
0.01992938 0.11372444 -0.10723265 0.050246764 0.08933278 0.08592131 -0.21029855 0.11203022
-0.21682546 -0.032186124 -0.018617725 -0.020854281 0.029353905 0.04818859 -0.10159203 0.004447943
-0.11252438 -0.09724205 -0.13108067 -0.02240704 0.05869092 -0.03768638 0.032838006 -0.0147375595
0.0064444286 0.11989405 -0.033029255 -0.042200394 0.046036553 0.032848943 0.09418309 -0.17766061
-0.11355243 0.028956115 0.011682088 0.16820055 0.06950216 0.11822852 0.012765968 0.053924415
0.14166346 0.0122123305 0.054604962 0.027992042 0.011971421 -0.07025714 0.018813571 0.005460139

to_logits.bias f4 [14]
00000000: fcb7 01bc 9615 c9bc 9247 2e3d df94 3dbd
00000010: 6562 59bd b493 35bc a49d 3cbd a159 9dbd
00000020: 6daa 6bbd db58 3e3d 8777 0e3d c96d 16bd
00000030: 58fa ae3a ed28 473c
-0.0079174 -0.024546426 0.042548724 -0.046284553 -0.053072352 -0.011082578 -0.046048775 -0.07683111
-0.057535578 0.046471458 0.03478196 -0.036725793 0.0013349755 0.012155754

to_value.weight f4 [1, 128]
00000000: d7af fe3d f1e5 de3d 9e61 aabd fdd9 853d
00000010: bc58 383d 88bc c83d 24b0 81bd 2445 543d
00000020: 4509 03be 7836 d33c ae77 d9bd 3f90 ce3d
00000030: 2f48 e1bb aaa8 b53d ae66 a43d 4665 8dbd
00000040: dcfd 12bb 457f bd3c c182 ca3d fe5c 0d3d
00000050: 9694 53bd 1a2c cdbd 1064 ddbd f56c ee3b
00000060: 204f 20bd 5bde bcbd f292 8dbd 34c3 133d
00000070: 6acc 35bc 4572 16bd 8832 bf3d cc67 5cbd
00000080: c3a5 123d 738e e6bd 24de 853c b7f7 dabc
00000090: 4829 ccbd 9a67 bf3d 9988 a13d 973a babd
000000a0: f1ce 2c3c 0b7a 8e3b c40a 55bd 7d61 993d
000000b0: 3d73 7b3d e19c d53d 631d 863d 8351 003d
000000c0: 69e5 9bba 5a77 be3c 66d9 cc3d ae64 cabd
000000d0: 3746 ee3c 7b57 69ba cb98 d5bd 2630 413d
000000e0: c594 c13c 152e df3d cbf1 9ebd 2cbe 24be
000000f0: f8cc a0bd 6a19 a33d 528c fdbd d5ba 3abd
00000100: ab3f c63d d5fb c43d 5699 a33d 4d8a be3d
00000110: 462a 8c3c 931f a63d e84f 703d 65a0 64bd
00000120: 7070 93bd c8db 963d ef52 f2bd 521e bd3c
00000130: 4171 e9bd 04d3 dc3d 7d58 903d 63ca 023b
00000140: 562f 65bd 025a 023e 013c 6c3d 26a2 3dbd
00000150: e1ba d1bd 8de0 abbd c528 aabd 270f bbbd
00000160: fe3d 12bd d865 533c ddfa f5bd dbbd 963d
00000170: c548 2a3c e47d 9abd 3530 f73b 8df1 e5bd
00000180: 659c e6bc ce14 163d d365 10be 6d50 d73c
00000190: 45e1 c33d 0bc9 b7ba 33a8 47bc 6d5f eabd
000001a0: 09e1 2b3d 6793 c63d 44ac 9c3d 8315 8cbd
000001b0: ecc6 3dbd 18fc b83d 1562 dabd 9542 06be
000001c0: ecc8 843d 733f bb3d e59d f43c 7270 843d
000001d0: 98af 2c3d 9003 c4bd 4938 ce3d 9870 ae3d
000001e0: e6ff d63d 0ea4 d2bd 1044 a0bc f338 043d
000001f0: e3c0 e6bd a7fa 1d3b 199c 143d 8544 cd3d
0.124358825 0.108837016 -0.083194 0.065357186 0.0450065 0.098015845 -0.06332424 0.05182375
-0.12796505 0.025782809 -0.1061853 0.100861065 -0.00687506 0.08870061 0.08027397 -0.06904082
-0.0022429144 0.023131976 0.098882206 0.034512512 -0.051655374 -0.10018177 -0.10810101 0.0072761723
-0.03913796 -0.092220984 -0.06912793 0.036074832 -0.011096099 -0.03673007 0.0933581 -0.053809926
0.035802614 -0.11257639 0.016341276 -0.026729448 -0.09968811 0.09345932 0.07887382 -0.090932064
0.010547386 0.0043480447 -0.05201222 0.074892975 0.061389197 0.10430313 0.06548574 0.031327736
-0.0011893931 0.02325027 0.10002403 -0.098824844 0.029086215 -0.000890128 -0.104295336 0.04716506
0.02363051 0.10897461 -0.07760962 -0.1608817 -0.07851595 0.07963832 -0.123802796 -0.045588333
0.096801125 0.09618346 0.07988231 0.093037225 0.017110001 0.08111491 0.058669955 -0.055817027
-0.0719918 0.07366139 -0.118322246 0.023085747 -0.113985546 0.107824355 0.07048128 0.0019957058
-0.055953346 0.12729648 0.05767441 -0.046297215 -0.102407224 -0.08392439 -0.083085574 -0.091337495
-0.03570365 0.012902699 -0.12010739 0.07360431 0.010393326 -0.07543543 0.0075435885 -0.11227713
-0.028150747 0.036640935 -0.14101343 0.026283467 0.09564451 -0.0014021707 -0.012186098 -0.11443982
0.041962657 0.096960835 0.076500446 -0.068400405 -0.046332285 0.09032458 -0.10663239 -0.13111337
0.06483635 0.09142961 0.029860446 0.0646676 0.042159647 -0.09570992 0.10069329 0.08517569
0.104980275 -0.10285197 -0.019563705 0.032280874 -0.11267259 0.00241057 0.03628168 0.10022835
